tflite_models/1624653692.tflite (tflite, 59356 bytes, 18 tensors)

;;;;;conv1d/bias;;;; f4 [16]
000000 e5 d7 28 40 c7 7a a1 3f a2 55 30 3f c9 60 94 bf
       2.6381772 1.2615594 0.68880665 -1.1592036
000010 b5 9f b2 bf fa a1 0f c0 e3 11 58 c0 e3 ca 16 40
       -1.3954989 -2.2442613 -3.3760917 2.3561332
000020 d2 fe 5e 40 94 f6 c8 bf 02 8c 53 c0 16 1d 11 40
       3.484303 -1.570025 -3.3054204 2.2674003
000030 5b 25 8b 40 29 83 79 bf 79 16 76 bf 1a 1e 01 c0
       4.34831 -0.9746576 -0.9612804 -2.0174623

;;;;;conv1d_1/bias;;; f4 [32]
000000 bb ab 88 bf 61 20 36 bc ca ac cd bd 23 e9 73 3f
       -1.0677408 -0.011116118 -0.100427225 0.95277613
000010 2c ae f8 3e 38 0e fd be 92 46 a2 3f 4a 3a 84 ba
       0.48570383 -0.4942491 1.2677786 -0.0010088172
000020 37 58 20 bf 87 10 c5 be a2 34 a7 be db a6 6a 3e
       -0.62634605 -0.38489172 -0.32657343 0.22915213
000030 18 02 e4 bf d9 85 38 bf 5e c4 86 bf eb f6 9c be
       -1.7813139 -0.72079235 -1.0528677 -0.30657133
000040 b1 27 91 3e 71 fe 3d be 41 62 6e 3f a6 a4 39 bf
       0.28350595 -0.18554093 0.93118674 -0.7251686
000050 43 19 5a bf d6 88 31 bf 2a ea f4 3e e7 36 93 be
       -0.85194796 -0.6934942 0.47834903 -0.28752825
000060 95 d5 2e bf 2a e6 c6 be 49 2a 01 bf 82 cd 14 3f
       -0.6829465 -0.38847476 -0.5045515 0.5812608
000070 e4 5e 57 3e ef a5 aa 3d 4a 33 45 bf 58 88 92 bf
       0.21032292 0.083324306 -0.77031386 -1.1447859

;;;;;conv1d_2/bias;;; f4 [16]
000000 80 78 48 bf e2 ed ff be 0b 56 02 bf 54 98 31 3f
       -0.7830887 -0.49986178 -0.5091254 0.6937306
000010 b5 78 23 bf 32 c1 00 bf 06 40 ac be ad 00 23 3f
       -0.6385606 -0.5029479 -0.33642596 0.63672906
000020 e6 75 03 be da 84 a3 bf fa b7 ac 3f e9 88 8d 3e
       -0.12837943 -1.2774918 1.3493645 0.27643517
000030 fe 2d 9f 3e 33 ad ad be 94 f4 7d 3f 24 8d cb be
       0.31089777 -0.33921203 0.9920132 -0.3975612

;;;conv1d/bias;;; f4 [16, 1, 4, 90]
000000 7e 03 3f be 7a 02 19 be 64 86 4d bd d7 72 21 3e
       -0.18653676 -0.14942351 -0.050176993 0.15766464
000010 c2 9d 04 be c3 a2 5a 3e 14 a4 8c 3e 55 26 1c bb
       -0.12950805 0.21351151 0.27468932 -0.0023826559
000020 92 89 52 be a5 1b 61 be 60 ab 69 be b1 ea cf bd
       -0.20560291 -0.21983202 -0.2281928 -0.10152186
000030 6e e0 99 3e 3b 7f 9c bd 59 c0 92 be 2e 01 48 3e
       0.3005404 -0.07641455 -0.28662375 0.195317
000040 61 be ec bd 16 7e 43 be 22 b9 72 be 7c 01 46 3e
       -0.115597494 -0.19091067 -0.23703435 0.19336504
000050 1a ab 8a be b5 38 10 3e 2b 11 5a 3e f0 2e 3b 3d
       -0.27083665 0.14084132 0.21295612 0.04569906
000060 8e 4b 58 3e 79 ff d9 3d 71 48 0b be 4d 96 95 bd
       0.21122572 0.10644431 -0.13601853 -0.07304058
000070 e6 d2 14 3e 64 7f 81 be f4 df 09 be 0d f5 0d be
       0.14533576 -0.25292504 -0.13464338 -0.1386301
000080 aa b3 0f be 69 e5 28 be 5f 1e e3 3c 66 da 49 bd
       -0.1403338 -0.16493763 0.027724443 -0.049280547
000090 67 4c 3c 3e a6 3b d1 3d 71 8c 76 be 40 74 75 be
       0.1838852 0.10216455 -0.24077012 -0.23970127
0000a0 4a f9 24 be 22 9e ac be 9f 7e b9 bd b0 c8 9c bd
       -0.16110721 -0.33714396 -0.09057354 -0.076554656
0000b0 19 e0 61 be 63 ef 69 be 9e c7 95 3d 7a f4 18 be
       -0.22058143 -0.22845225 0.073134646 -0.1493701
0000c0 1d 38 c4 3d f8 ab 05 3e 74 b6 6c be a2 b9 3e 3d
       0.09581015 0.13053882 -0.23116475 0.046563752
0000d0 02 ed 75 bd a2 22 84 be b5 0a 10 3e 50 ac f0 bd
       -0.06004048 -0.25807673 0.14066584 -0.11751616
0000e0 c2 e9 6a be ed 63 ca bd 52 5a 81 be ca 3e ea 3d
       -0.22940734 -0.098823406 -0.2526422 0.11437757
0000f0 14 36 6d 3e 8b b0 89 3e c2 bf 1c 3b 18 bd 25 3e
       0.2316516 0.26892504 0.0023918008 0.16185415
000100 d0 93 8d be 31 ca 77 3e a4 89 35 3d 03 d6 94 be
       -0.27651834 0.24198224 0.044320717 -0.29069528
000110 9c 58 93 be 8f 7a d7 bd 06 c9 79 be 1d 96 7d be
       -0.2877854 -0.10521423 -0.2439309 -0.24764295
000120 be ea 42 3e 69 2e 89 bd 9f a7 b4 3d 81 77 74 3b
       0.1903486 -0.06698305 0.08821034 0.0037302675
000130 c2 48 c2 3d fc c0 63 be 21 cc 7a bd a3 43 8f be
       0.09486534 -0.22241586 -0.06122983 -0.2798129
000140 99 91 97 bd 9d 4d 0c be 69 15 fb bd 0b ab 14 3d
       -0.074008174 -0.13701482 -0.12259943 0.03629593
000150 a5 e5 e1 bd 27 fc 95 3e 68 c8 5d bc ec 37 fd bc
       -0.11030129 0.2929394 -0.01353655 -0.030910455
000160 47 31 e0 bd 09 0c 1d 3e 68 d0 87 bb 5c e1 e5 3c
       -0.10946899 0.15336622 -0.004144717 0.028061561
000170 50 87 65 3e 13 ff 6d 3e 0c 29 86 bd b4 b2 21 be
       0.22414899 0.23241834 -0.06550798 -0.15790826
000180 59 3f 69 3d 94 9b 95 be 2c f0 5d 3d a5 39 13 3e
       0.05694518 -0.2922026 0.054184124 0.14377458
000190 f1 c5 81 3e b0 43 83 3e b3 79 cf 3a 48 16 a4 3e
       0.2534633 0.2563758 0.0015829116 0.3204825
0001a0 9a 58 6c be 35 6c a6 3e 9f b8 02 3e 8d 13 8d 3e
       -0.23080674 0.3250443 0.1276574 0.2755398
0001b0 90 7d ed bd 76 9a b1 3d f8 34 16 be c1 20 f4 3d
       -0.11596215 0.08672039 -0.14668643 0.1192031
0001c0 df 1e 6d 3e 11 7f 85 be 13 10 a0 3d cf 26 d2 bd
       0.23156308 -0.26073506 0.07815566 -0.102613084
0001d0 ff 71 ee bc 03 65 93 3e a1 4c 19 be f1 81 cd bd
       -0.029107092 0.28788003 -0.14970638 -0.1003455
0001e0 33 50 35 be c9 05 09 be fc 91 88 3a d1 5f 44 be
       -0.17706375 -0.13381113 0.0010419483 -0.19177176
0001f0 5f 35 9f bc de 31 88 3e b3 73 82 be c3 69 32 3e
       -0.019434629 0.26600546 -0.25478896 0.17423157
000200 7b 7b ef 3c 54 5e fc 3b fa e5 0a 3e 63 e9 18 3c
       0.029233685 0.0077016745 0.13564292 0.0093329875
000210 eb c4 1b bd 77 a7 93 be a5 9c 34 3d a7 41 8a 3d
       -0.038029592 -0.28838703 0.0440947 0.067508034
000220 74 98 6c be b8 fb 88 3e 7e a8 31 bd 31 7d 2d be
       -0.23105031 0.26754546 -0.043373577 -0.16942288
000230 4d eb 9a 3c 6e 7b 4d bd 36 01 34 3e 36 fb f6 bc
       0.018911028 -0.05016654 0.17578587 -0.030149084
000240 04 9d 91 3e f6 6e 1f be 7c 27 03 bd 23 4d b8 bd
       0.28440106 -0.15569672 -0.032020077 -0.08999088
000250 e5 aa 5e bd 2d 26 96 3d eb f1 17 be f4 e8 93 be
       -0.054362196 0.073315 -0.14838378 -0.28888667
000260 2d 55 00 3e 23 79 42 be 77 74 49 3d 6f b0 30 3d
       0.12532492 -0.18991522 0.049183335 0.04313701
000270 45 63 4d 3e d0 4a 85 bd 8e c8 7a 3e 3e 07 f4 bd
       0.200574 -0.0650841 0.24490568 -0.11915444
000280 81 61 ad be c6 b4 8e 3d 9f 4c 4b 3e a5 a5 45 3c
       -0.33863452 0.069680735 0.19853447 0.0120634185
000290 58 2a 8f 3d f8 95 2c 3e ee 2a 3e 3d ff 14 07 be
       0.06990498 0.16854084 0.04642766 -0.13191603
0002a0 f1 cc 22 3e 15 71 65 be 2c 9c 44 3d 9c 99 4c 3c
       0.15898491 -0.22406419 0.0480005 0.012487795
0002b0 e2 fa 9b be 31 7c 81 3e d3 2d 00 be aa 67 2c bd
       -0.30464846 0.25290063 -0.1251748 -0.04209105
0002c0 6d 77 be bd 27 cb 83 bd 8e 23 41 3d a0 3f 86 3c
       -0.093001224 -0.064352326 0.04715305 0.01638776
0002d0 56 01 d5 bd 95 8f bc be b2 df 46 be 75 0b a4 3d
       -0.104006454 -0.36828294 -0.1942127 0.08009998
0002e0 d4 2c c7 3d 7e d2 59 bd 59 3e f2 3d 54 f2 29 3e
       0.09725347 -0.053179257 0.11828298 0.16596347
0002f0 de 4f 28 be b3 06 17 3d f6 f3 90 bd 14 e2 0b 3a
       -0.16436717 0.036871623 -0.07077782 0.00053361175
000300 f0 68 61 3d 8d ed 2c be 43 ef df bd 76 f0 d4 bd
       0.055031717 -0.16887493 -0.109343074 -0.10397427
000310 4d 9b 48 3e ff bd 71 3e 2f ed 7e be 59 94 ab bc
       0.19590493 0.23607634 -0.24895166 -0.020944761
000320 2d 19 8b 3e f6 16 70 be ce 80 82 3e 29 46 1f be
       0.27167645 -0.23446259 0.25488895 -0.15554108
000330 b9 ed 5f 3e ca 92 09 be be ee a0 3c fd 4b 24 be
       0.21868028 -0.13434902 0.019645091 -0.16044612
000340 db 83 7c 3c 08 dc 95 be ee f1 d4 3d 94 42 90 bc
       0.015412296 -0.29269433 0.10397707 -0.017609872
000350 ac 9a ff 3d 55 fd 52 be e3 b7 91 be e0 32 3e bd
       0.12480673 -0.20604451 -0.28460607 -0.046435237
000360 9f c6 4d 3e 05 93 37 be 21 b0 a8 3e 47 73 36 be
       0.20095299 -0.17927177 0.32946876 -0.17817412
000370 79 8e 4f 3e 98 ec 06 be 2e 12 05 be 9d 41 a6 3d
       0.20269193 -0.13176191 -0.12995216 0.081179835
000380 ac 85 87 be 66 0c 07 bc c2 85 42 3e e7 e1 61 3e
       -0.2646917 -0.008242702 0.18996337 0.22058831
000390 b3 cd 8b bd 83 17 6d 3e 6e 82 2f 3e ea ce 9f be
       -0.068263434 0.231535 0.17139599 -0.3121255
0003a0 69 e1 f4 3d d4 19 f6 bd 06 54 9d be 58 ae 81 3d
       0.11957056 -0.12016645 -0.30728167 0.063320816
0003b0 ef e5 ab be 9e c1 22 be 66 a5 8b be 27 42 6e 3e
       -0.33573863 -0.15894172 -0.27274626 0.23267423
0003c0 41 d6 ec bc 41 88 a5 3d c8 7f 14 be 86 7d a5 3d
       -0.028910758 0.08082629 -0.1450187 0.08080582
0003d0 6f 2f df bd 63 65 90 be 4c a1 bc bd 5a 68 a1 3c
       -0.10897719 -0.28202352 -0.092104524 0.019703079
0003e0 2a 4d c9 3b e0 36 62 bd 53 33 54 3d 9c d2 1e be
       0.006143232 -0.055228114 0.05180676 -0.15510029
0003f0 f4 59 59 bc 40 c4 f4 bd b1 44 81 bd 54 d9 1e 3e
       -0.013266075 -0.11951494 -0.0631193 0.15512592

;;;conv1d_1/bias;; f4 [32, 1, 2, 16]
000000 8f 95 7f be d0 14 d2 bd 9a ca 69 3f ab e1 10 3f
       -0.24959396 -0.10257876 0.9132477 0.5659434
000010 ac 63 73 3f ba 09 5b 3f aa e7 81 be 47 fc b1 3e
       0.9507396 0.85561717 -0.25372058 0.34762785
000020 b6 06 7f 3e 69 43 54 bf b8 9c ef be 16 9d f1 bd
       0.24904904 -0.8291536 -0.46799254 -0.1179754
000030 ae 98 b4 3f 91 39 5f 3f 42 b5 de 3d ff 81 9b 3f
       1.4109094 0.87197214 0.10874416 1.2149047
000040 f2 5a 79 bb e7 f7 b6 bd b0 cb 85 3f 6a 5b da be
       -0.0038048592 -0.08934002 1.0452785 -0.42647868
000050 cc 11 23 3f 0a fa 52 bf cd 45 bd be a4 c8 7f bf
       0.6369903 -0.8241278 -0.36967316 -0.9991553
000060 51 6a 78 3d 71 e7 4b be 3b 62 37 3f 71 be 19 3d
       0.060648266 -0.19912507 0.7163426 0.037535135
000070 c5 41 c7 bd 78 5b cb 3d 79 f7 a0 be c9 e8 87 3f
       -0.097293414 0.09929556 -0.31438807 1.0617915
000080 26 72 b8 3e c8 83 4c 3e 8a 71 c6 3e 4a bb 9e bf
       0.36024588 0.19972146 0.38758498 -1.2400906
000090 53 a6 3d bf 6f e7 09 3e a9 52 86 3d 0c 73 99 be
       -0.74081916 0.13467191 0.06558735 -0.29970586
0000a0 3c b0 15 3f 94 13 82 be 58 54 16 3f 1b 7f 90 3f
       0.5847204 -0.25405562 0.5872245 1.128879
0000b0 bf 6d 91 3f 6c 20 34 bf 30 ce 50 3f bb 58 77 bf
       1.1361617 -0.7036197 0.8156462 -0.96619767
0000c0 46 cc 4f bf 3c d7 32 be 61 0d 88 3f 3b e6 d2 be
       -0.8117107 -0.17464918 1.0629083 -0.41191277
0000d0 c2 13 63 3f 15 87 94 3f a2 5f e7 3e 38 07 f7 be
       0.88702023 1.1603724 0.4519015 -0.48247695
0000e0 fb ac ac bf b2 a2 03 3f 6c 20 5f bf 0f 9a 32 bf
       -1.349029 0.5142013 -0.87158847 -0.69766325
0000f0 94 0b 62 3f 83 f9 aa 3e dd 56 ad 3f b2 44 7a bf
       0.88298917 0.33393487 1.3542134 -0.9776107
000100 0a 9d 90 bc cf 53 fb 3e 31 c2 e5 bc 31 be 68 3f
       -0.017653007 0.49087378 -0.0280467 0.9091521
000110 19 cd 9d 3e dd b7 b1 3d a4 56 60 3f c8 86 0f 3f
       0.3082054 0.08677647 0.87632203 0.56065035
000120 66 e4 fc 3e 92 dd 54 3f c6 7f 8d be f5 4c b6 be
       0.49393004 0.8315059 -0.27636546 -0.3560559
000130 a0 fc 45 3f 50 b0 82 bf 72 b7 e1 3d 24 55 9c 3f
       0.773386 -1.0210056 0.110213175 1.2213483
000140 cb 94 0c 3f c0 25 04 3f c6 2c 0e bf e5 b0 80 3d
       0.5491454 0.516201 -0.5553707 0.0628374
000150 82 72 41 bf c1 bd 92 bf 7b 9a 4c bf 51 79 f8 3c
       -0.7556535 -1.1464158 -0.7992322 0.030331286
000160 7a 90 18 3f 1b 7c 69 bf d7 79 01 bf 83 df 13 be
       0.59595454 -0.91204995 -0.5057654 -0.14440732
000170 61 29 7b bd c2 b5 a8 3e 9e ee ae be 90 03 95 bf
       -0.06131876 0.3295117 -0.34166425 -1.1641712
000180 05 c9 cd 3e f4 fa 06 3e d6 ea 17 bf 9e 71 47 bf
       0.40192428 0.13181669 -0.59342706 -0.7790774
000190 79 a3 16 3f 62 c6 46 bf 10 19 44 3f d2 dc 3e bf
       0.5884319 -0.7764646 0.7660074 -0.74555695
0001a0 cc 39 16 bf 99 00 3b bf f4 db 35 3f 35 82 67 3e
       -0.5868194 -0.73047787 0.71038747 0.22608264
0001b0 73 a7 07 be 20 36 67 3e c7 c7 0f bf 4d a4 f6 be
       -0.1324747 0.22579241 -0.5616421 -0.48172227
0001c0 e4 58 57 3e 50 d9 ed bc 80 03 22 bf 4a 2e 47 bf
       0.21030003 -0.029034287 -0.6328659 -0.77805007
0001d0 a6 4d 83 bd 46 d8 82 3e 29 33 a1 bd a8 c8 bf be
       -0.06411295 0.2555563 -0.07871086 -0.37457776
0001e0 49 9d 20 bf 94 7e ad be 38 48 fe 3e 0a 4d 12 bf
       -0.6274 -0.33885634 0.49664474 -0.571488
0001f0 78 ae f5 be 4b ac 5e 3e dd a4 10 3f 4b d0 14 bf
       -0.47984672 0.21745412 0.5650156 -0.5813033
000200 95 fe df 3e 73 a1 ad be 7c 0a a3 3f fc 6e 02 bd
       0.43748918 -0.33912238 1.2737575 -0.031844124
000210 92 57 51 bf 6d 4e af 3e b3 2e 45 3f be 7e 32 bf
       -0.81774247 0.34239522 0.7702438 -0.69724643
000220 15 bf 9c 3f b8 03 36 3f cf a1 f4 3e be 70 e6 be
       1.2245814 0.71099424 0.477797 -0.4500789
000230 48 e0 27 bf ec 0a 4f be d5 99 85 3f 0d 9b 69 bf
       -0.655766 -0.2021901 1.0437571 -0.91252214
000240 1c 17 83 bf d3 b9 cd be 5d 8a c7 3d 0b 1e d6 3e
       -1.0241427 -0.40180835 0.097431876 0.41819796
000250 5d 90 91 bf 3f 7d b2 bf b1 e7 87 3f b9 7c b8 bf
       -1.1372181 -1.3944472 1.0617582 -1.4413062
000260 84 94 71 3f 00 46 e9 be b6 01 d0 3e 5b f7 30 3f
       0.9436724 -0.45561218 0.40626305 0.69127434
000270 32 ff 66 3f c9 f0 81 bf 16 07 eb 3e d2 26 62 bf
       0.9023315 -1.0151607 0.45903844 -0.88340485
000280 b8 ff e5 be 2b c6 e4 3e 9e d9 0e 3f dc a6 4d 3f
       -0.4492166 0.4468244 0.5580081 0.8033273
000290 f6 34 18 3f d0 ea 96 be 6a d1 28 be 5f 87 a5 3e
       0.5945581 -0.29476023 -0.16486135 0.32329842
0002a0 e4 93 8a 3e 93 06 09 bf 18 b6 a2 bd ce 33 86 3e
       0.27065957 -0.53525656 -0.07944888 0.262114
0002b0 57 91 d8 bc 3e d5 59 bf b0 cc ea 3e 82 56 83 be
       -0.026436491 -0.85091007 0.4585929 -0.25651938
0002c0 b1 0b 0e 3f ad 37 6a 3e df e7 08 be b4 1d e1 bd
       0.5548659 0.22872801 -0.13369702 -0.109919935
0002d0 1d 8f 38 3f 43 b2 6a bf 48 81 08 3f bf a4 fd 3e
       0.72093374 -0.91678256 0.5332227 0.49539754
0002e0 3b 2e 36 be fa f7 11 3f f2 4e 0a 3f d5 16 9e be
       -0.17791073 0.5701901 0.5402671 -0.30876794
0002f0 e5 61 1a 3f 79 d7 01 bf 78 49 74 bf 9e 2b 0e 3e
       0.60305625 -0.5071941 -0.95424604 0.13883826
000300 49 a0 85 3f 37 60 f5 3e a8 06 ab be e2 31 94 bf
       1.043954 0.4792497 -0.33403516 -1.1577723
000310 65 94 c7 3e 75 09 9f bf f4 8d 0c 3e 8a 2b 83 3f
       0.38980404 -1.2424761 0.13726026 1.0247662
000320 56 e0 fe be 49 d5 69 3f f7 81 b7 3e eb a3 ca be
       -0.4978053 0.9134107 0.35841343 -0.39578184
000330 20 2e e7 be bc 9d 2b bd 3a 58 7e bf 42 15 34 3f
       -0.45152378 -0.041898474 -0.99353373 0.70344937
000340 99 61 1f 3f e3 71 53 bf 4e 42 23 bd 7a 20 a0 bf
       0.622583 -0.8259565 -0.039858155 -1.2509911
000350 03 0b 5a 3f b5 ee 06 3f ea e2 28 3f fb 85 3a bf
       0.8517305 0.5270799 0.65971243 -0.7286069
000360 4a 39 11 bf ff 6a 88 bf 6b d6 d5 bf 5d 2a c5 be
       -0.5672804 -1.0657653 -1.670606 -0.38508883
000370 5f 81 f1 3c 1c dd 68 bf fc 82 bb be c0 97 8b 3c
       0.029480634 -0.90962386 -0.3662337 0.017040133
000380 9f ab 91 be 1d f7 b9 bd cc 89 5a 3f 2c ca 5d 3e
       -0.2845125 -0.09080336 0.8536651 0.21659154
000390 d0 2e ea 3e 64 61 82 3f 00 82 8f 3f ea 82 ea bd
       0.4573884 1.0185971 1.1211548 -0.11450751
0003a0 e8 52 90 3f 10 85 9e bf 8f 15 9e be f5 fd 54 3f
       1.1275301 -1.2384357 -0.30875823 0.8320001
0003b0 e8 ad 8f bf 24 e7 80 bf 59 9c 83 bf c4 db 1e bf
       -1.1224947 -1.0070539 -1.0282089 -0.62054086
0003c0 fc 5b 79 3f 83 60 7c 3f 4a a6 03 bf 1f 05 15 be
       0.9740598 0.98584765 -0.5142561 -0.14552735
0003d0 e4 12 58 3f b0 76 65 bf 8a c9 8e 3f 27 33 9e 3e
       0.84403825 -0.8963423 1.1155255 0.308984
0003e0 7f 59 3b bf b4 b6 2c be 9e a0 dc be 69 44 f4 3e
       -0.73183435 -0.1686657 -0.4309129 0.47708443
0003f0 90 75 94 3f 5b ac 6b 3e 19 c4 68 bf 3a bb 47 bf
       1.1598377 0.23014967 -0.9092422 -0.7802006

;;;conv1d_2/bias;; f4 [16, 1, 1, 32]
000000 4c 9b 1b 3f 1d cf a2 3e cc 84 83 3d 5b 0b 2b bf
       0.6078384 0.3179864 0.06421813 -0.668142
000010 ba 4e 5f be d5 e9 5f bf 43 bf b5 3e 8d 6f 40 3f
       -0.21807376 -0.87466174 0.35497484 0.75170213
000020 f0 58 53 bf be b2 e4 3e e0 17 66 3e 06 46 dd 3e
       -0.8255758 0.4466762 0.22470045 0.43217486
000030 17 f0 18 3b 24 6b 79 3f 06 39 0c 3e 25 1d 03 3f
       0.0023336464 0.9742911 0.13693628 0.51216346
000040 46 5e 68 bf 83 85 1a 3f 2e 80 29 3f 8b 00 ce 3e
       -0.9076885 0.6035997 0.6621121 0.4023479
000050 80 ba b6 be 23 c6 fc 3d f8 72 0b 3f 31 4d 44 bf
       -0.35689163 0.12342479 0.54472303 -0.76680285
000060 60 69 65 bf 99 28 5e 3e 64 9e 2c 3f 12 60 de 3c
       -0.89613914 0.21695174 0.67429185 0.02714542
000070 95 80 ff 3d d1 19 10 3f ba d3 bd 3d be e5 40 3e
       0.12475697 0.5628939 0.09268899 0.1883764
000080 73 01 89 bd 5c 54 8b 3e a9 92 af be 03 9c 06 3f
       -0.066897295 0.272128 -0.3429158 0.52581805
000090 77 31 60 3f 46 6b 06 3e 0e f1 ec be c2 37 db 3e
       0.8757548 0.13126859 -0.4627766 0.42815977
0000a0 26 72 e0 3e f1 0d 34 3f e7 84 b3 be b8 63 3e be
       0.43837088 0.7033377 -0.35062334 -0.18592727
0000b0 8d 08 d4 be 07 d4 11 3f 99 e1 fb be 6b 6b 22 bf
       -0.41412774 0.56964153 -0.49195555 -0.63445157
0000c0 b5 31 83 be e3 d0 06 3f 58 7b 30 bd 25 35 ea 3e
       -0.2562386 0.52662486 -0.04308638 0.4574367
0000d0 9b ac 80 3e 90 3e 24 bf 49 3a 08 bf 4d f4 02 bd
       0.25131688 -0.6415796 -0.53213936 -0.031971265
0000e0 83 23 c3 be ba 08 90 3e 6d cf 67 3f a4 b6 4c be
       -0.3811303 0.28131658 0.9055088 -0.19991547
0000f0 a8 49 3e 3d a3 75 b1 be d1 ee f9 3e 1a c5 65 3e
       0.046456963 -0.34660062 0.48815015 0.2243847
000100 0a 6b aa 3e de 66 8b 3f 67 a0 0b 3e fb ef f0 3e
       0.3328479 1.0890768 0.13635407 0.4705809
000110 44 48 b5 be 34 3d 04 bf 8d 99 e9 3e 05 98 6d bf
       -0.35406697 -0.5165589 0.45624962 -0.9281009
000120 2e 3c 41 3e 11 76 e9 be 9f a5 39 3f b8 8c 10 bf
       0.18870613 -0.4559789 0.7251834 -0.5646472
000130 2e e4 23 3e 53 0c 84 3f f5 18 a7 be 50 d0 07 bf
       0.16005012 1.0316261 -0.32636228 -0.53052235
000140 42 30 25 3f 93 e9 16 bf a3 29 82 3e 42 6b 82 3f
       0.6452676 -0.58950156 0.2542239 1.0188982
000150 aa ad c9 bd 49 3b 64 3f d3 7f 17 bf d2 ec 20 bf
       -0.09847577 0.8915296 -0.5917942 -0.6286136
000160 ed 7b 10 3f 79 46 55 be 84 f0 1b 3f fd 0f 2f 3f
       0.56439096 -0.20827664 0.6091387 0.6838377
000170 da 5f 8e 3e f8 d1 dc 3e 5e 3c 37 bf 67 67 85 be
       0.27807504 0.43128943 -0.7157649 -0.26055452
000180 01 a5 79 3d cf f9 cc 3e 38 da 58 bf be fe 05 be
       0.060948376 0.4003434 -0.84707975 -0.13085458
000190 92 9f 19 be d7 c7 15 bd d9 0f 4d 3d bf 18 02 bf
       -0.15002277 -0.036567535 0.05006394 -0.5081901
0001a0 4a 39 95 be 37 75 43 be d8 0e 52 3e c9 f2 0a 3f
       -0.2914527 -0.19087683 0.20513475 0.5427671
0001b0 09 ec c5 3e b5 4f 6c bf ab ed 26 bd 85 d7 1f 3f
       0.38656643 -0.92309123 -0.040754 0.6243823
0001c0 df c2 00 3e 19 ce 33 bf 75 de 84 3f ba 4b 39 bf
       0.12574337 -0.70236355 1.0380388 -0.72381175
0001d0 7b 4e 8a be 0f ff 07 3e 6d 6d 0a 3f 27 62 85 3d
       -0.27013 0.13280891 0.5407322 0.06512862
0001e0 e5 32 00 bf c3 89 30 bf 8d 1a 6d 3e 76 cd 45 3e
       -0.5007766 -0.6896021 0.2315466 0.19316658
0001f0 21 08 7b bf d5 ea a6 be af df 26 3f ba e9 84 3e
       -0.9805928 -0.32601038 0.65185064 0.2595957
000200 4c ac 47 3e e4 63 2c bf 96 97 1b 3f 7f 9f 1b 3e
       0.1949932 -0.6733992 0.60778177 0.15197562
000210 04 63 8a bc 83 72 44 be ac 7f 8c 3e 48 0f fe 3d
       -0.016892917 -0.19184308 0.27441156 0.124052584
000220 78 d8 3d 3d ae ae 08 3f b7 c5 d1 be 2f 54 75 3f
       0.04634902 0.5339154 -0.40971157 0.9583158
000230 2e dc 2b bf 5f d5 03 bf 89 f2 7a be 8a bc 14 bf
       -0.6713284 -0.51497453 -0.24506582 -0.5810019
000240 5f b8 78 bd ae 9d 5c 3f db 58 49 3e f0 66 3a be
       -0.060722705 0.861781 0.19662802 -0.1820333
000250 85 15 00 3f 2a a8 0a 3f 68 16 69 3d 7a ee af 3e
       0.50032836 0.5416285 0.056906134 0.3436163
000260 e0 5b 01 3f 37 32 3c 3e b4 7c bb 3e 4c 6c 7e 3e
       0.50530815 0.1837853 0.36618578 0.24846
000270 d8 27 40 3f 0d 74 2e 3f c7 41 db be 66 52 89 be
       0.75060797 0.6814583 -0.42823622 -0.26820678
000280 3e 3c 49 3d 55 28 0b bf 8e 6d 9e 3e f4 61 05 be
       0.049129717 -0.54358417 0.3094296 -0.13025647
000290 31 dc 8d 3f 07 bf e5 3c 8a bc df 3e ff c2 d7 be
       1.1082822 0.02804519 0.4369853 -0.42140958
0002a0 4d 4b 91 3d 96 8c 2e be ba 4b 50 be 50 5b e6 3e
       0.070944406 -0.17045817 -0.20341387 0.4499154
0002b0 a1 8e 2f bf ed 95 0f be 1a b3 18 3f e5 4b f9 be
       -0.6857701 -0.14022036 0.5964829 -0.48690715
0002c0 41 dd 45 3f d6 ae 76 3f 5e db 4d 3e 1a ce 28 bf
       0.7729073 0.9636053 0.20103213 -0.65939486
0002d0 95 d1 23 3f 05 7d 48 3f c7 bb 3f bf b9 2b 63 3e
       0.6399167 0.78315765 -0.748959 0.22184648
0002e0 33 58 ed 3b 9c 60 09 3c 64 c1 86 be 6f a7 08 bf
       0.00724318 0.00838485 -0.2631942 -0.53380483
0002f0 f9 fb da bd 88 51 9d 3e f2 22 00 3f 22 c6 5b bf
       -0.10692591 0.30726266 0.5005332 -0.858492
000300 13 86 ee bd 26 24 07 bf c3 4f 12 3f f2 28 aa 3c
       -0.116466664 -0.52789533 0.57152957 0.020771477
000310 d9 97 29 3f 2c 98 77 3e 7d c3 17 3f 18 45 11 3f
       0.66247326 0.24179143 0.59282666 0.56746054
000320 94 2c fa be 7b 55 a1 be ef d5 b7 be a8 ec 00 3f
       -0.48862135 -0.3151053 -0.35905406 0.5036111
000330 50 d7 3a bf 6b 5e 63 be f3 8d c7 3e cf 17 17 3f
       -0.7298479 -0.22203986 0.38975486 0.59020704
000340 0b 41 41 bf 38 86 ce 3e d4 aa 7f bd 94 98 69 be
       -0.7548987 0.40336776 -0.062418774 -0.2281211
000350 96 51 11 3d d9 11 15 bf 01 0a ad bd ae be be 3e
       0.035478197 -0.5823036 -0.08449174 0.37254852
000360 ac d2 12 3f c3 f1 c4 3e 33 65 29 3e a1 78 70 3c
       0.5735271 0.384657 0.1654251 0.014677198
000370 09 af 0c be 02 e0 0c 3f 60 fe 07 3f 4c 3c a7 be
       -0.13738646 0.5502931 0.5312252 -0.3266319
000380 e6 06 e1 3e 44 e0 15 bf 17 94 7b bf af db 31 bf
       0.43950576 -0.5854533 -0.9827284 -0.69475836
000390 8a 1c 00 3e 7c c8 6a bf c2 d8 56 3f 80 15 22 3e
       0.12510887 -0.91712165 0.83924496 0.15828514
0003a0 fd 4f 92 be e4 3d 85 bf eb 66 c1 be 52 30 a4 3f
       -0.2857665 -1.0409513 -0.37773833 1.2827246
0003b0 78 7a a2 be d0 c9 09 3f fd f0 39 bf 28 86 45 bf
       -0.3173406 0.53823566 -0.72633344 -0.7715783
0003c0 ff e7 42 bf d6 ad 2e bf b3 ec ce be ea 13 c9 3e
       -0.7613525 -0.68234 -0.40414962 0.39273006
0003d0 72 08 7a 3f 66 fa f3 be 67 4c 36 bf e7 ef 13 3f
       0.97669137 -0.47651976 -0.7121033 0.57787937
0003e0 c9 bc 33 bd 05 ab 17 be 86 09 57 3f 65 b4 34 3f
       -0.04388121 -0.14811333 0.83998907 0.7058776
0003f0 53 8b c9 3e 98 68 70 bd 2a 4d dd 3d 74 08 3f be
       0.39364108 -0.0586935 0.108057335 -0.18655568

lstm/lstm_cell/bias f4 [32]
000000 21 93 b0 bd 9e f5 6f 3e dd 74 99 3c dc e5 22 3d
       -0.086218126 0.2343354 0.018732483 0.039769992
000010 a8 71 07 3d 3a 6a 24 3c 6c 9c 0c 3e 09 06 3e bc
       0.033067375 0.010035092 0.13731545 -0.011598119
000020 3b 46 77 3f ef 49 82 3f c8 ff 7b 3f 11 be 81 3f
       0.9659154 1.0178813 0.98437166 1.0136129
000030 95 bf 84 3f 88 95 81 3f 9f 64 80 3f 9d 62 81 3f
       1.0370966 1.0123758 1.0030707 1.0108219
000040 73 54 c4 3a 08 3e 0a 3b c1 e6 c0 bc 82 59 a0 bc
       0.0014978781 0.0021094102 -0.023547532 -0.01957393
000050 14 4a 61 bc 8c a6 c6 bc ae 88 4c bb 70 4a 68 bc
       -0.013750572 -0.024249338 -0.0031209397 -0.0141779035
000060 be 66 b9 bd 7d 7b 6e 3e 2d ee 94 3d 79 0d 25 3d
       -0.090528 0.23289295 0.07271991 0.04029605
000070 a0 d1 c1 3c 9c f3 b2 3c ef 43 11 3e d5 39 14 bd
       0.023659527 0.021844678 0.14186071 -0.036187965

dense_4/bias f4 [3]
000000 1c ea 9f bd 03 7e 70 3d 04 3c 1a 3d
       -0.07808325 0.058713924 0.03765489

std.constant15 f4 [1, 16]
000000 50 64 e2 3e 51 83 47 be 64 49 18 3f 97 98 26 be
       0.44217157 -0.19483687 0.59486985 -0.16269146
000010 24 fc ea be 20 54 a2 bd dd 4c 4b 3e 67 83 ce bd
       -0.45895493 -0.07926202 0.1985354 -0.10083657
000020 08 d5 dc 3d db b6 fb 3d 94 c1 de bd 5d 38 5c be
       0.1078282 0.12290736 -0.10876766 -0.21505876
000030 e4 18 3f bd 71 07 df be 84 80 cc 3e c3 db 74 3e
       -0.046654597 -0.43560365 0.399418 0.23911957

std.constant16 f4 [16, 1]
000000 bb d1 29 c0 70 f8 64 bf 0b 5b 70 bf 7e 39 99 bf
       -2.653426 -0.89441586 -0.9388892 -1.197067
000010 6f 61 59 bf 57 2b 78 3e 90 ee 3c c0 0a 5a 9b 3f
       -0.84914297 0.24235283 -2.9520607 1.2136853
000020 1f 8b 90 3e 19 86 43 c0 76 e7 2f bf a3 eb 9e bf
       0.2823114 -3.0550597 -0.68712556 -1.2415661
000030 c9 9f 06 c0 f8 1d af bf 7a da 0f bf c8 fe 53 bf
       -2.1035025 -1.3681021 -0.56192744 -0.8281064

std.constant17 f4 [2, 32]
000000 ef 84 91 3e c6 61 a0 bc 25 21 0d bf 9c ce 9b 3e
       0.28421733 -0.019577872 -0.551287 0.30431068
000010 e9 5f fb bc c1 77 08 be 9b 73 f2 bd f8 e0 d8 3d
       -0.030685382 -0.13326932 -0.11838456 0.105897844
000020 7f ef 8a be 13 cc c7 3e 96 97 b6 3e c1 5a a3 be
       -0.27135846 0.39022884 0.35662526 -0.31905177
000030 f5 db 84 3e 9d 0d 24 bd ac af b2 be 79 2e 33 3e
       0.25949064 -0.040052045 -0.34899652 0.17498197
000040 37 19 b0 bd ad df 2b 3e 56 46 c7 3e 47 52 1f 3e
       -0.08598559 0.16784544 0.3892085 0.1555873
000050 89 07 45 be 3c 4f 53 be 9f 6e 79 be ea 06 d6 3c
       -0.19241156 -0.20635694 -0.24358605 0.026126344
000060 7c dd ab 3d 08 32 dc bd 63 79 a9 3e 89 22 7c 3e
       0.08391854 -0.1075173 0.33100423 0.24622549
000070 b7 4c 91 3e e0 4a 42 bc 2d fe 7a 3e 38 25 86 be
       0.2837884 -0.011858672 0.24511023 -0.2620027
000080 0a b6 37 3e 31 a2 1d 3e b6 9e 4c be 67 a2 8c be
       0.17940536 0.15393902 -0.19982418 -0.27467653
000090 65 bd ff bd b0 07 01 3f 3f 79 32 3e 72 2f 7c bd
       -0.12487296 0.50402355 0.17429064 -0.061568685
0000a0 bb 08 3b 3e 48 39 a6 be 76 08 d8 3e 55 99 ee be
       0.18265049 -0.32465577 0.42193955 -0.46601358
0000b0 ec 18 0d bb 92 c0 e9 bc de 40 ac be d5 ed d6 bc
       -0.0021529747 -0.028534207 -0.3364324 -0.026236454
0000c0 1f 91 c7 be 10 cd cb 3d 94 19 1e bb 75 a2 05 bf
       -0.38977906 0.09951222 -0.0024124132 -0.52201015
0000d0 59 f9 d4 3c d4 8e 03 3e b0 71 23 be 64 dc 8e be
       0.025997804 0.12847453 -0.15961337 -0.2790252
0000e0 ba 09 15 be a2 dd 9d 3e 41 84 84 3e de ef 60 bd
       -0.14554492 0.30833155 0.25882152 -0.054916255
0000f0 c4 13 91 be 0d 16 70 3d 4a a9 79 3d 07 36 0f be
       -0.28335392 0.05861478 0.060952462 -0.13985454

std.constant18 f4 [32, 2]
000000 28 ad 5a 3f 38 8e 6e 3f 84 d2 54 bf d1 2c d3 be
       0.85420465 0.9318576 -0.8313372 -0.4124513
000010 13 0f f4 bf 1d c5 97 3f 79 36 e7 bf ec 30 36 3f
       -1.90671 1.1857029 -1.8063499 0.711684
000020 a6 3e 55 3f 5a d6 52 3f 77 dd 8d be 32 86 2c 3f
       0.8329872 0.82358325 -0.27708027 0.67392266
000030 eb cb 29 bf 3c 01 24 3f 7a f8 b1 3f 4c d9 14 bf
       -0.6632678 0.64064384 1.3903954 -0.5814407
000040 18 f9 62 3f 96 ff 97 bf 26 61 61 3e a2 33 e5 bf
       0.88661337 -1.1874874 0.22009715 -1.7906382
000050 4e ac 41 be e4 a5 0c 40 7c c7 a6 bf 00 c0 4a be
       -0.18913385 2.1976252 -1.3029628 -0.19799805
000060 07 87 d8 bf 9d 90 f0 be 46 14 e7 3f 87 2f 80 bc
       -1.6916207 -0.4698533 1.8053062 -0.015647663
000070 67 c9 99 3f 8b 95 1c 3f 06 0d 14 3e ba ae 66 3f
       1.2014588 0.61165684 0.14458093 0.9011036
000080 85 e8 82 bf 4d 9c 87 bf a0 6a 1c 3f 06 3d b3 be
       -1.0227209 -1.0594574 0.61100197 -0.35007495
000090 c2 de 6b be 59 ab a5 3d 00 67 89 be b7 0c 00 be
       -0.23034194 0.080893226 -0.26836395 -0.1250485
0000a0 b3 6d b7 3f 67 5a 96 3f b9 59 13 3f cb db 87 3f
       1.4330353 1.1746339 0.5755878 1.061395
0000b0 78 f5 a7 3f e4 6f bc 3e 0f 85 81 be 63 f7 fc 3e
       1.3121786 0.36804116 -0.25296828 0.4940749
0000c0 1d 52 d8 bc 2a e8 c9 be 3e 63 9c 3f 54 60 d4 bc
       -0.026406342 -0.3943494 1.2217786 -0.02592484
0000d0 fe 5d d1 3e a3 cf b1 be 83 8b 11 bf 7c 82 8d 3f
       0.40892023 -0.34728727 -0.56853503 1.1055446
0000e0 ef 8b cb bd 11 88 55 be 37 a2 59 3f b4 fc a1 be
       -0.099387996 -0.20852686 0.85013145 -0.3163811
0000f0 b7 1f 91 be f9 4b ca be 58 e8 fd 3c cd d3 cd 3f
       -0.2834451 -0.39511088 0.03099458 1.6080261

std.constant19 f4 [32, 8]
000000 a8 1d a0 be c6 aa 77 be c4 36 2c 3b 2f 91 7d be
       -0.31272626 -0.24186239 0.002627776 -0.24762414
000010 4e a8 39 3d ee 07 9f 3e 0d c9 2c be 7a a3 2d 3e
       0.045326523 0.31060737 -0.1687357 0.16956893
000020 dd 2f 14 3d 56 1d 58 be ff e4 cf 3e 2b 6c 89 3e
       0.03617846 -0.21104941 0.40604398 0.26840338
000030 0f b1 31 be 27 ee 65 be f6 81 91 bd ad c3 30 bf
       -0.17352699 -0.22454129 -0.07104866 -0.6904858
000040 d6 88 00 3e ed 92 66 be 5f c0 a8 3c 51 b7 1a 3e
       0.12552199 -0.22516985 0.020599542 0.15108992
000050 48 5c 0f be c1 98 b3 3c 2b dd 9c be 07 0a cf 3b
       -0.14000046 0.021923425 -0.30637488 0.006318334
000060 2e c4 46 be 20 32 50 3e 1a 8d 3c 3e 64 f0 a8 bd
       -0.19410774 0.20331621 0.18413201 -0.08248976
000070 61 ff 83 3e 5b 5d b7 3d 47 36 db bd 5e f4 30 3d
       0.25780776 0.08953353 -0.10703712 0.043201797
000080 0a b2 14 3e 79 f7 f3 3c d2 a7 e6 bd a0 69 77 bd
       0.14521042 0.02978109 -0.11262478 -0.060403466
000090 06 23 07 be a0 1f ae 3e f2 38 4e ba b6 5e 61 be
       -0.13196954 0.34008503 -0.0007866762 -0.22008786
0000a0 d1 68 95 be 6f 16 cf bd 24 0d 14 3e 12 31 1e 3e
       -0.2918153 -0.10111701 0.14458138 0.15448406
0000b0 b5 dc 9a 3a ca 7a 0a 3d 46 fb 20 3d 05 0d 60 3e
       0.0011815043 0.033808507 0.039302133 0.21879967
0000c0 ff 6b ae bd 2f 0b ac bd e6 75 27 bd 78 60 a1 3e
       -0.08516692 -0.084005706 -0.04088392 0.31518912
0000d0 a4 92 85 be 9e 08 59 be e1 91 c9 bb 3e c8 8a be
       -0.2608844 -0.21194693 -0.0061514233 -0.27105898
0000e0 7f 60 d8 bd 28 02 90 bc 86 98 16 3e 6e 76 a5 3d
       -0.1056528 -0.017579153 0.1470662 0.08079229
0000f0 9b da 4b 3e d7 a9 c1 3e 43 ef 9f be ed 93 cb bd
       0.1990761 0.3782489 -0.3123723 -0.09940324
000100 83 0c 7c be 9b f6 8d 3e f0 4b 22 be 01 7e 6c 3c
       -0.24614148 0.27727208 -0.1584928 0.014434339
000110 aa 3e a3 3d 85 47 38 3b f7 88 f2 3e 60 90 7a 3e
       0.079709366 0.00281188 0.4737012 0.24469137
000120 67 21 9b 3e 0f 65 7d 3e ff 40 2a 3e c0 0b 49 be
       0.3029892 0.24745582 0.16626357 -0.19633389
000130 3a 8b 84 bd 19 87 3d 3e f8 b6 7b bc ad 46 93 3d
       -0.06471868 0.18508567 -0.015363447 0.07191215
000140 16 f4 d0 bd 3e 35 24 be 83 4c b5 3d 02 fe 5e be
       -0.10202806 -0.16035935 0.08852484 -0.21776584
000150 99 4a 19 3e b3 56 4e be 16 a6 e7 3c d7 dd 2d be
       0.14969863 -0.2015026 0.028277438 -0.16979156
000160 22 40 13 3e 5b 99 52 be de 45 4d bd 24 f0 59 3b
       0.14379933 -0.20566313 -0.05011546 0.0033254707
000170 73 11 03 be 6e d6 1f bc df b8 90 3b 5b 2c 01 be
       -0.12799625 -0.009755714 0.0044165696 -0.12614577
000180 45 17 1a 3e ba 74 2f 3e cc a6 37 3d cd e8 f0 bd
       0.15047939 0.17134371 0.044836804 -0.11763153
000190 b6 21 09 3e 09 17 b0 be a0 4c 97 be d4 8f c7 3d
       0.13391766 -0.34392574 -0.29550648 0.0974423
0001a0 3a c0 fc bd 5b ae 78 3d 61 6d 08 3e 13 18 14 b9
       -0.12341352 0.060713153 0.13322975 -0.00014123348
0001b0 51 b9 aa 3d bf 30 e8 bd 27 3d c1 3d 65 ae 5f 3d
       0.083361275 -0.113374226 0.09435492 0.054609675
0001c0 28 68 19 3e 4c bc cd bd 5b ee a5 3e 72 f9 68 be
       0.14981139 -0.100456804 0.32408413 -0.22751406
0001d0 34 ad ca be 04 78 dd bc b4 eb a0 bd 54 fd 2e 3e
       -0.39585268 -0.027034767 -0.07857457 0.17088825
0001e0 dd 4f 1d 3d 51 43 5a 3e 0d 59 83 3e c0 4f 3e bd
       0.03840624 0.21314742 0.25653878 -0.046462774
0001f0 7a 8c 2c bd ca af 6f bd d0 44 bb 3c 52 f0 2c be
       -0.042126156 -0.058517255 0.02285996 -0.1688855
000200 e7 28 1f 3e b1 3f 49 bd 69 c1 52 bd fd 40 03 3c
       0.15542947 -0.049133006 -0.05145398 0.0080111
000210 bf 53 2a 3e ca 3d 2b be 3f 12 27 3e 98 b7 80 3e
       0.16633509 -0.1672279 0.16315554 0.2514007
000220 af 4d d6 3d ae 6c 64 bd 38 fc e1 3e 4e 9f 1b 3e
       0.10464036 -0.055767708 0.4413774 0.15197489
000230 76 13 19 3e 18 e1 69 3e 2f 01 e3 3d 3f c1 83 3e
       0.1494883 0.22839773 0.1108421 0.25733373
000240 0f f6 12 bd 91 e7 3d be 14 5a a0 3e 65 03 98 3d
       -0.03587919 -0.18545367 0.31318724 0.074225225
000250 04 ba 36 3e 1f 0c 95 be ad 94 6e 3d 07 0c 3c be
       0.17844397 -0.2911081 0.058247257 -0.18363963
000260 e2 71 3d be 7b 4c 23 be 0b 3a cb 3c 2e 8b 4e 3d
       -0.18500474 -0.15947144 0.02480795 0.0504257
000270 86 a2 ca be ff 47 41 be 69 62 34 bd ff dd 58 3d
       -0.3957712 -0.1887512 -0.044039164 0.052946087
000280 c8 86 14 be ed 39 78 bd cc 50 d7 3c ab a1 ce 3e
       -0.1450454 -0.060602117 0.026283644 0.40357718
000290 9e 17 5f bd 53 c6 cc 3d 1b 06 0d 3e 7c d7 71 3d
       -0.054465882 0.09998765 0.1377186 0.059043393
0002a0 40 29 9f bc 39 e5 ff bd f8 8f c7 3b ec 2a de be
       -0.01942885 -0.124948926 0.0060901605 -0.43392122
0002b0 55 c9 5e 3e 68 4c 64 3c 47 d8 25 3e a7 4e 92 3e
       0.2175649 0.013934232 0.16195785 0.28575632
0002c0 2c 17 68 3e 82 0f a3 bc 31 35 d6 bd a6 f9 f8 bc
       0.2266509 -0.019904856 -0.10459364 -0.03039248
0002d0 a5 8f ae 3d 9e 4b eb bd 86 2c b3 3d 20 7d 47 be
       0.08523492 -0.11489032 0.087487265 -0.19481325
0002e0 db 08 ef 3d b0 fb 6c bd e6 20 ad be 2d ef 2f 3e
       0.11671611 -0.057857215 -0.33814162 0.17181082
0002f0 a1 c2 6a 3e 24 41 42 3e 18 cf c7 3d 8b 84 0f 3e
       0.22925808 0.18970162 0.09756297 0.14015405
000300 67 9f 1d be ab 9f 09 3b 2a e4 97 bd 1a 73 dd be
       -0.15392838 0.002099971 -0.07416566 -0.43251878
000310 3c ee d9 bd b7 cd 9a 3e 93 4d 6d 3e 02 a0 84 bd
       -0.10641143 0.30235073 0.23174123 -0.064758316
000320 ec 51 ac bb 18 4e a3 3e 77 e4 b6 3a d3 a7 ba 3d
       -0.0052587893 0.31895518 0.0013953586 0.09114041
000330 cc 13 c1 be c2 45 4d be 75 8b 0b bf e3 8b 83 be
       -0.37710416 -0.20046142 -0.5450967 -0.25692663
000340 9a ae 27 bc 39 0a 10 bf e2 e0 49 be 7a 0f 1a be
       -0.010234499 -0.562656 -0.19714692 -0.15044966
000350 eb be b6 bc 2b af 27 3d a7 26 09 3d e9 c7 62 3d
       -0.022307834 0.040938538 0.033484127 0.05536643
000360 fc 42 01 3e 33 82 a4 be 53 0c 2a be 28 27 93 3d
       0.12623209 -0.32130584 -0.16606264 0.07185203
000370 0a d3 a0 3d 8a 8c 98 be 48 df e0 be 7a cf 9f bc
       0.078527525 -0.29794723 -0.4392035 -0.019508112
000380 5d 29 0b bc 52 d8 e7 bd da be ce 3c 06 c7 f1 3d
       -0.0084937485 -0.11320557 0.02523749 0.11805539
000390 59 8b 9f 3e 90 26 ca bc ed c4 be be 42 0d 1c be
       0.31161 -0.024676591 -0.37259617 -0.15239432
0003a0 3e 63 b4 3c 23 df 1e 3d 64 13 0c bc b8 6e 78 3e
       0.022019979 0.03878702 -0.008549545 0.24260986
0003b0 38 9e 6d be ad e4 1c 3d c1 fa e5 bc a6 04 47 3e
       -0.23204887 0.03830402 -0.02807367 0.19435367
0003c0 69 74 79 bd 5d e0 2e be ef 31 38 3e e1 ea 46 3e
       -0.060902033 -0.17077775 0.17987798 0.19425537
0003d0 a8 2a 7b be 41 b1 b1 be 7c 92 ca be ca fd 15 3e
       -0.24527991 -0.34705546 -0.39564884 0.14647594
0003e0 59 1d d2 be 74 41 fb 3c 06 c7 08 be 07 4b 32 be
       -0.41038015 0.030670859 -0.13357171 -0.17411433
0003f0 d9 5f a5 3d 65 b5 f9 3c 3e 8c f0 3d 8c 7c bc 3d
       0.08074922 0.030482003 0.11745499 0.09203443

std.constant20 f4 [32, 7]
000000 1e e4 00 bd e8 2f 7a 3c ce 5b 0f 3e 92 3f 3f 3e
       -0.03146755 0.015270211 0.13999864 0.18676594
000010 ca aa f3 be 9c cf 57 3d ce 52 64 be e6 ef 0b be
       -0.4759124 0.052688226 -0.22297212 -0.13665733
000020 a7 1e af 3e d1 c4 25 be 1f 99 38 be 92 dc e3 3e
       0.34203073 -0.16188361 -0.18027161 0.4450422
000030 25 d0 f5 3d 1c 16 cd 3d b3 9d 56 be 00 e7 5e 3e
       0.12002591 0.10013983 -0.20958595 0.21767807
000040 1d 95 23 3e 60 9a b6 be 09 e2 b9 3e 25 41 a6 bc
       0.15974851 -0.35664654 0.36305264 -0.020294735
000050 11 42 4f 3e 28 ea cc 3d e9 b0 bf 3e 23 6d 41 3e
       0.20240046 0.10005599 0.3743966 0.18889289
000060 89 80 84 3e 3d 2a 40 3e 0d 41 ec 3e 65 37 01 3f
       0.25879315 0.18766113 0.4614338 0.5047515
000070 3a 9a aa be cb 82 b4 be 4c 07 92 be e7 d0 8e 3e
       -0.3332079 -0.35256037 -0.28521192 0.27893755
000080 83 b2 39 be fe 2e 35 bd 9e db 3a bd 65 8d 3a 3e
       -0.18134503 -0.04423427 -0.0456196 0.18218
000090 45 aa 2c be bb 77 a5 bd a3 b7 89 bd 77 7b ca be
       -0.16861828 -0.080794774 -0.06724479 -0.3954732
0000a0 13 70 ca 3e a1 e0 7b be e5 9c 89 3e a6 85 e9 3e
       0.3953863 -0.24597408 0.26877514 0.45609778
0000b0 63 57 51 3d c4 d3 89 3d 7c 3c d8 3d 7c fa f9 bd
       0.05110873 0.06729844 0.105584115 -0.12205979
0000c0 f7 c5 d2 3e 58 92 a1 bd b6 3d 2a 3e 54 2e 85 3e
       0.4116666 -0.07889241 0.16625103 0.26011908
0000d0 4f ca 65 be 9a e8 ab be 79 ca ea be 4c 9e 73 3e
       -0.22440456 -0.33575898 -0.458576 0.23790854
0000e0 8d 1b 51 be 32 c8 9d 3e ba 6a 9c 3d 9f a5 72 be
       -0.20420666 0.308168 0.07637544 -0.23695992
0000f0 a6 9a 20 3e d3 8b b3 3e 63 4a 47 3d 76 e1 26 bc
       0.15683994 0.35067615 0.048654925 -0.01018559
000100 a7 5a 57 be 74 cd 50 be 88 4a 8e 3e 8b 5e 4e 3e
       -0.21030675 -0.20390874 0.27791238 0.20153253
000110 b8 17 08 be 5e c4 82 3e a2 dc 99 be c1 93 83 be
       -0.13290298 0.2554044 -0.30051142 -0.25698665
000120 65 57 44 3e 02 0b 96 3e cb 5d bb bd 5a e1 9d bd
       0.19173963 0.29305273 -0.09148749 -0.07708998
000130 4d b4 fc 3d 0e 87 89 bd 8c 7a 9c be e5 6f 30 3e
       0.12339077 -0.06715213 -0.30562246 0.17230184
000140 f3 c2 a6 3d d1 55 bd be 61 56 0d 3e c6 10 62 bd
       0.08142652 -0.36979535 0.13802482 -0.055191778
000150 df 03 37 be 75 0a aa be da 42 db 3e 9b 7b ef bc
       -0.1787257 -0.33211103 0.4282444 -0.029233744
000160 ff b2 99 3e af 96 93 3e 04 97 33 be d7 4c 4d 3e
       0.30019376 0.288259 -0.17538077 0.20048843
000170 f3 a1 62 be d4 fd a2 be 68 34 d9 3d fa 21 85 be
       -0.22132091 -0.3183428 0.10605699 -0.26002485
000180 40 2c 8f 3e 1b b1 93 be 60 ec c1 be 35 22 f9 bd
       0.27963448 -0.28846058 -0.37875652 -0.121647276
000190 35 8c 66 be 07 61 a3 be 29 95 ab 3e 3c 41 e2 3b
       -0.22514422 -0.31909963 0.33512238 0.006904749
0001a0 bf 10 00 3f 17 62 1f 3e 7e 52 86 be 33 9e dc 3d
       0.5002555 0.15564762 -0.26234812 0.107723616
0001b0 c8 0c 37 3e 5b 23 25 be c9 ee 71 3e 0f 8b fe 3b
       0.1787597 -0.16126768 0.23626246 0.007768042
0001c0 d3 92 a2 be 05 08 b2 3e e9 fb 1a 3e df 93 ef 3d
       -0.31752643 0.34771743 0.15135159 0.11698126
0001d0 9f 75 c0 3e 2d d2 e8 bd 05 22 85 3d 53 61 52 be
       0.37589738 -0.11368213 0.06500629 -0.20544939
0001e0 5f 47 e4 bd 14 8b 1f bd ef ea 48 3e 50 7e b4 3e
       -0.111464255 -0.038950995 0.1962087 0.3525262
0001f0 dc a1 59 3c 86 b5 01 bf 20 66 23 3e 5d da 83 bd
       0.013283219 -0.5066761 0.15956926 -0.06438134
000200 8b 24 c7 be 72 50 ad 3e 1f 6f e6 3d a2 09 6f be
       -0.38895068 0.33850437 0.112516634 -0.23343518
000210 8d ce d0 3e a5 9b c7 be 49 63 8f 3d c4 69 82 3e
       0.40782586 -0.38985935 0.07001359 0.25471318
000220 d1 0e 22 3e 4b 7c ac 3c 25 58 1d 3e 95 26 c1 3e
       0.15825965 0.021055361 0.15365656 0.37724748
000230 80 e4 8d 3e e9 c0 d8 be e2 5f 46 bd 24 5e 42 3d
       0.27713394 -0.4233468 -0.048431285 0.04745306
000240 9b 10 a8 be db dc 8a bd 05 99 04 3e 4a 2f 4c be
       -0.3282517 -0.06780406 0.12948997 -0.19939914
000250 e2 51 14 bd 5e c1 56 be 18 00 5b 3e 47 c2 89 bd
       -0.036210902 -0.20972201 0.21386755 -0.067265086
000260 f8 3f f4 be 86 58 8a 3e ad 9f c5 be 54 b5 01 be
       -0.47705054 0.27020663 -0.38598385 -0.12666827
000270 96 43 0f 3e 0b e7 21 3e a6 1c e9 3d 02 a4 89 bd
       0.13990626 0.15810792 0.113824174 -0.06720735
000280 77 42 1a bf 1e 76 42 bd f8 6a 47 3e 5d 16 02 3e
       -0.6025767 -0.047475927 0.19474399 0.12703843
000290 6b b6 59 be bd 4c 59 bc 62 9b 63 be 42 31 24 be
       -0.21260993 -0.013262925 -0.22227243 -0.16034415
0002a0 79 f8 f7 be f9 7c c6 be da 9f 1d be c4 15 0b be
       -0.48431757 -0.38767222 -0.1539301 -0.13582522
0002b0 c5 e9 09 3e 36 33 4c be e6 d3 29 be a2 ef aa 3e
       0.13468082 -0.1994141 -0.16584739 0.3338595
0002c0 82 77 85 3d 01 34 31 be 46 9a 9d 3d db fb 6a 3e
       0.06516935 -0.17304994 0.07695441 0.22947638
0002d0 eb 0a 9f 3e 5f dd cb 3e 34 65 d0 3e 02 dd af bd
       0.31063017 0.3981733 0.40702212 -0.08587076
0002e0 22 0e aa be 4b 45 88 3e 18 83 ab 3e 17 e8 2f be
       -0.33213907 0.26615366 0.33498454 -0.17178379
0002f0 47 21 6d bd 0e 05 c4 3d e5 fc c9 be 24 c0 29 be
       -0.057893064 0.095712766 -0.39450756 -0.16577202
000300 81 5c a7 bd 6a a0 9a 3e 64 0f 9d bd 97 d6 23 3f
       -0.081719406 0.3020051 -0.07668951 0.63999313
000310 c0 5f 69 3e 3e c8 1e be ee b5 a9 be d1 bb 3d be
       0.22790432 -0.15506074 -0.33146614 -0.18528678
000320 07 2f ab 3d 99 4b 8f bd c2 e8 22 3e 6c 37 63 3e
       0.08358579 -0.06996841 0.15909103 0.2218911
000330 3d d6 15 be af 40 08 bd 43 be 76 3e 37 e8 97 bd
       -0.14632507 -0.033264812 0.24096017 -0.07417338
000340 83 62 63 3e fc 90 3f 3e a9 da 96 be 77 6c 86 be
       0.22205548 0.18707651 -0.294637 -0.26254627
000350 cf ba 53 be a5 d5 b0 3e 1e 8f d1 3e 24 ae 49 bd
       -0.2067673 0.34537998 0.40929502 -0.04923834
000360 67 ec f1 3e db ba 52 be 77 f9 cc 3e 03 91 39 3e
       0.47250673 -0.20579092 0.40034077 0.18121724
000370 16 7f c1 3e 3a 29 6c bd 6a c9 01 bf 9a f6 37 bd
       0.3779227 -0.057656504 -0.5069796 -0.044912912

std.constant21 f4 [3, 24]
000000 55 9d 49 3e ee a0 e2 3e 0c a9 12 3d cd 82 b1 3d
       0.19688924 0.44263405 0.035805747 0.086675264
000010 5e 34 b3 3e 1b 7b 9a 3d 04 c3 f1 3e 5e f8 b6 3e
       0.3500089 0.07543012 0.47219098 0.35736364
000020 06 44 9f 3e d7 73 e3 3e 64 ad b2 be bc ff 3f bc
       0.31106585 0.44424316 -0.34897912 -0.011718687
000030 c5 c9 0b 3f 2c 6e 9a 3e c1 2f 09 3f 72 0f 64 3e
       0.5460475 0.3016218 0.5358849 0.22271517
000040 d8 26 a2 3e 39 c6 61 3e e1 9b 92 3c da 14 f2 be
       0.3167026 0.22048272 0.017896594 -0.47281533
000050 fb d3 05 3f db a0 14 bf f8 4c 8f bc de 78 8f 3d
       0.5227658 -0.58057946 -0.017492756 0.070054755
000060 83 0d 61 bd 98 2c de be d6 7e a7 3e bc 2a da 3e
       -0.054944526 -0.43393397 0.32713956 0.4261073
000070 d0 d8 ce 3e 60 fc 95 bb 98 2f 07 3e c4 f3 48 3e
       0.4039979 -0.0045772046 0.1320175 0.19624239
000080 07 c8 cb 3e 46 72 cd 3e 67 90 2d bd 5a b3 9f be
       0.39801046 0.40126246 -0.04237404 -0.31191522
000090 6f 96 80 3e db af d4 be 26 95 f1 be a6 a4 fc be
       0.25114772 -0.41540417 -0.47184104 -0.49344367
0000a0 a3 ba 3f bd ba f1 77 3e 06 ce 53 be ce f3 87 3d
       -0.04680885 0.24213305 -0.2068406 0.06638299
0000b0 53 ab e7 be 8d 96 d4 3e 2e 0b 19 bf 59 2c c5 3e
       -0.45247898 0.4152111 -0.59782684 0.38510397
0000c0 56 98 16 be a5 fb bb be d4 ea b0 3e cd a0 bb 3e
       -0.14706549 -0.36715427 0.3455416 0.3664612
0000d0 d1 ac 42 3e 30 47 26 3e d3 92 d8 3d 06 83 be be
       0.19011237 0.16238093 0.105748795 -0.37209338
0000e0 4b 94 13 bf 90 1e 35 3e 84 3d be be 12 ae b8 3e
       -0.5764815 0.1768744 -0.37156308 0.36070305
0000f0 d3 06 f0 be d1 e5 a1 be df 46 dd bd e0 7a c2 be
       -0.46880206 -0.31620649 -0.10804533 -0.3798437
000100 89 9d 24 bf bf 38 24 be de bc 9b 3e 12 bf bc 3e
       -0.6430288 -0.16037272 0.30417532 0.36864525
000110 93 a3 af 3d 87 ee da be 81 ea 1b 3f 77 43 b8 be
       0.08576121 -0.42760107 0.609047 -0.35988972

lstm/lstm_cell/bias1 f4 [32]
000000 21 93 b0 bd 9e f5 6f 3e dd 74 99 3c dc e5 22 3d
       -0.086218126 0.2343354 0.018732483 0.039769992
000010 a8 71 07 3d 3a 6a 24 3c 6c 9c 0c 3e 09 06 3e bc
       0.033067375 0.010035092 0.13731545 -0.011598119
000020 3b 46 77 3f ef 49 82 3f c8 ff 7b 3f 11 be 81 3f
       0.9659154 1.0178813 0.98437166 1.0136129
000030 95 bf 84 3f 88 95 81 3f 9f 64 80 3f 9d 62 81 3f
       1.0370966 1.0123758 1.0030707 1.0108219
000040 73 54 c4 3a 08 3e 0a 3b c1 e6 c0 bc 82 59 a0 bc
       0.0014978781 0.0021094102 -0.023547532 -0.01957393
000050 14 4a 61 bc 8c a6 c6 bc ae 88 4c bb 70 4a 68 bc
       -0.013750572 -0.024249338 -0.0031209397 -0.0141779035
000060 be 66 b9 bd 7d 7b 6e 3e 2d ee 94 3d 79 0d 25 3d
       -0.090528 0.23289295 0.07271991 0.04029605
000070 a0 d1 c1 3c 9c f3 b2 3c ef 43 11 3e d5 39 14 bd
       0.023659527 0.021844678 0.14186071 -0.036187965

std.constant37 f4 [32, 7]
000000 1e e4 00 bd e8 2f 7a 3c ce 5b 0f 3e 92 3f 3f 3e
       -0.03146755 0.015270211 0.13999864 0.18676594
000010 ca aa f3 be 9c cf 57 3d ce 52 64 be e6 ef 0b be
       -0.4759124 0.052688226 -0.22297212 -0.13665733
000020 a7 1e af 3e d1 c4 25 be 1f 99 38 be 92 dc e3 3e
       0.34203073 -0.16188361 -0.18027161 0.4450422
000030 25 d0 f5 3d 1c 16 cd 3d b3 9d 56 be 00 e7 5e 3e
       0.12002591 0.10013983 -0.20958595 0.21767807
000040 1d 95 23 3e 60 9a b6 be 09 e2 b9 3e 25 41 a6 bc
       0.15974851 -0.35664654 0.36305264 -0.020294735
000050 11 42 4f 3e 28 ea cc 3d e9 b0 bf 3e 23 6d 41 3e
       0.20240046 0.10005599 0.3743966 0.18889289
000060 89 80 84 3e 3d 2a 40 3e 0d 41 ec 3e 65 37 01 3f
       0.25879315 0.18766113 0.4614338 0.5047515
000070 3a 9a aa be cb 82 b4 be 4c 07 92 be e7 d0 8e 3e
       -0.3332079 -0.35256037 -0.28521192 0.27893755
000080 83 b2 39 be fe 2e 35 bd 9e db 3a bd 65 8d 3a 3e
       -0.18134503 -0.04423427 -0.0456196 0.18218
000090 45 aa 2c be bb 77 a5 bd a3 b7 89 bd 77 7b ca be
       -0.16861828 -0.080794774 -0.06724479 -0.3954732
0000a0 13 70 ca 3e a1 e0 7b be e5 9c 89 3e a6 85 e9 3e
       0.3953863 -0.24597408 0.26877514 0.45609778
0000b0 63 57 51 3d c4 d3 89 3d 7c 3c d8 3d 7c fa f9 bd
       0.05110873 0.06729844 0.105584115 -0.12205979
0000c0 f7 c5 d2 3e 58 92 a1 bd b6 3d 2a 3e 54 2e 85 3e
       0.4116666 -0.07889241 0.16625103 0.26011908
0000d0 4f ca 65 be 9a e8 ab be 79 ca ea be 4c 9e 73 3e
       -0.22440456 -0.33575898 -0.458576 0.23790854
0000e0 8d 1b 51 be 32 c8 9d 3e ba 6a 9c 3d 9f a5 72 be
       -0.20420666 0.308168 0.07637544 -0.23695992
0000f0 a6 9a 20 3e d3 8b b3 3e 63 4a 47 3d 76 e1 26 bc
       0.15683994 0.35067615 0.048654925 -0.01018559
000100 a7 5a 57 be 74 cd 50 be 88 4a 8e 3e 8b 5e 4e 3e
       -0.21030675 -0.20390874 0.27791238 0.20153253
000110 b8 17 08 be 5e c4 82 3e a2 dc 99 be c1 93 83 be
       -0.13290298 0.2554044 -0.30051142 -0.25698665
000120 65 57 44 3e 02 0b 96 3e cb 5d bb bd 5a e1 9d bd
       0.19173963 0.29305273 -0.09148749 -0.07708998
000130 4d b4 fc 3d 0e 87 89 bd 8c 7a 9c be e5 6f 30 3e
       0.12339077 -0.06715213 -0.30562246 0.17230184
000140 f3 c2 a6 3d d1 55 bd be 61 56 0d 3e c6 10 62 bd
       0.08142652 -0.36979535 0.13802482 -0.055191778
000150 df 03 37 be 75 0a aa be da 42 db 3e 9b 7b ef bc
       -0.1787257 -0.33211103 0.4282444 -0.029233744
000160 ff b2 99 3e af 96 93 3e 04 97 33 be d7 4c 4d 3e
       0.30019376 0.288259 -0.17538077 0.20048843
000170 f3 a1 62 be d4 fd a2 be 68 34 d9 3d fa 21 85 be
       -0.22132091 -0.3183428 0.10605699 -0.26002485
000180 40 2c 8f 3e 1b b1 93 be 60 ec c1 be 35 22 f9 bd
       0.27963448 -0.28846058 -0.37875652 -0.121647276
000190 35 8c 66 be 07 61 a3 be 29 95 ab 3e 3c 41 e2 3b
       -0.22514422 -0.31909963 0.33512238 0.006904749
0001a0 bf 10 00 3f 17 62 1f 3e 7e 52 86 be 33 9e dc 3d
       0.5002555 0.15564762 -0.26234812 0.107723616
0001b0 c8 0c 37 3e 5b 23 25 be c9 ee 71 3e 0f 8b fe 3b
       0.1787597 -0.16126768 0.23626246 0.007768042
0001c0 d3 92 a2 be 05 08 b2 3e e9 fb 1a 3e df 93 ef 3d
       -0.31752643 0.34771743 0.15135159 0.11698126
0001d0 9f 75 c0 3e 2d d2 e8 bd 05 22 85 3d 53 61 52 be
       0.37589738 -0.11368213 0.06500629 -0.20544939
0001e0 5f 47 e4 bd 14 8b 1f bd ef ea 48 3e 50 7e b4 3e
       -0.111464255 -0.038950995 0.1962087 0.3525262
0001f0 dc a1 59 3c 86 b5 01 bf 20 66 23 3e 5d da 83 bd
       0.013283219 -0.5066761 0.15956926 -0.06438134
000200 8b 24 c7 be 72 50 ad 3e 1f 6f e6 3d a2 09 6f be
       -0.38895068 0.33850437 0.112516634 -0.23343518
000210 8d ce d0 3e a5 9b c7 be 49 63 8f 3d c4 69 82 3e
       0.40782586 -0.38985935 0.07001359 0.25471318
000220 d1 0e 22 3e 4b 7c ac 3c 25 58 1d 3e 95 26 c1 3e
       0.15825965 0.021055361 0.15365656 0.37724748
000230 80 e4 8d 3e e9 c0 d8 be e2 5f 46 bd 24 5e 42 3d
       0.27713394 -0.4233468 -0.048431285 0.04745306
000240 9b 10 a8 be db dc 8a bd 05 99 04 3e 4a 2f 4c be
       -0.3282517 -0.06780406 0.12948997 -0.19939914
000250 e2 51 14 bd 5e c1 56 be 18 00 5b 3e 47 c2 89 bd
       -0.036210902 -0.20972201 0.21386755 -0.067265086
000260 f8 3f f4 be 86 58 8a 3e ad 9f c5 be 54 b5 01 be
       -0.47705054 0.27020663 -0.38598385 -0.12666827
000270 96 43 0f 3e 0b e7 21 3e a6 1c e9 3d 02 a4 89 bd
       0.13990626 0.15810792 0.113824174 -0.06720735
000280 77 42 1a bf 1e 76 42 bd f8 6a 47 3e 5d 16 02 3e
       -0.6025767 -0.047475927 0.19474399 0.12703843
000290 6b b6 59 be bd 4c 59 bc 62 9b 63 be 42 31 24 be
       -0.21260993 -0.013262925 -0.22227243 -0.16034415
0002a0 79 f8 f7 be f9 7c c6 be da 9f 1d be c4 15 0b be
       -0.48431757 -0.38767222 -0.1539301 -0.13582522
0002b0 c5 e9 09 3e 36 33 4c be e6 d3 29 be a2 ef aa 3e
       0.13468082 -0.1994141 -0.16584739 0.3338595
0002c0 82 77 85 3d 01 34 31 be 46 9a 9d 3d db fb 6a 3e
       0.06516935 -0.17304994 0.07695441 0.22947638
0002d0 eb 0a 9f 3e 5f dd cb 3e 34 65 d0 3e 02 dd af bd
       0.31063017 0.3981733 0.40702212 -0.08587076
0002e0 22 0e aa be 4b 45 88 3e 18 83 ab 3e 17 e8 2f be
       -0.33213907 0.26615366 0.33498454 -0.17178379
0002f0 47 21 6d bd 0e 05 c4 3d e5 fc c9 be 24 c0 29 be
       -0.057893064 0.095712766 -0.39450756 -0.16577202
000300 81 5c a7 bd 6a a0 9a 3e 64 0f 9d bd 97 d6 23 3f
       -0.081719406 0.3020051 -0.07668951 0.63999313
000310 c0 5f 69 3e 3e c8 1e be ee b5 a9 be d1 bb 3d be
       0.22790432 -0.15506074 -0.33146614 -0.18528678
000320 07 2f ab 3d 99 4b 8f bd c2 e8 22 3e 6c 37 63 3e
       0.08358579 -0.06996841 0.15909103 0.2218911
000330 3d d6 15 be af 40 08 bd 43 be 76 3e 37 e8 97 bd
       -0.14632507 -0.033264812 0.24096017 -0.07417338
000340 83 62 63 3e fc 90 3f 3e a9 da 96 be 77 6c 86 be
       0.22205548 0.18707651 -0.294637 -0.26254627
000350 cf ba 53 be a5 d5 b0 3e 1e 8f d1 3e 24 ae 49 bd
       -0.2067673 0.34537998 0.40929502 -0.04923834
000360 67 ec f1 3e db ba 52 be 77 f9 cc 3e 03 91 39 3e
       0.47250673 -0.20579092 0.40034077 0.18121724
000370 16 7f c1 3e 3a 29 6c bd 6a c9 01 bf 9a f6 37 bd
       0.3779227 -0.057656504 -0.5069796 -0.044912912
